chatbot/data.pth (torch, 5527 bytes, 6 tensors)

l1.weight f4 [8, 63]
-0.1746165 0.038061712 -0.20309836 -0.006871522 0.28313255 0.08719902 0.28716254 0.5282217
-0.16098756 -0.116934866 -0.5350312 -0.2212516 -0.6461804 0.2646775 -0.18382514 -0.25930703
-0.18234569 0.074716456 -0.08579028 0.33682948 0.43610218 0.4421097 0.4307122 -0.32381603
0.2520766 0.29678887 0.32425272 -0.13821746 0.17976086 -0.12031207 0.04349458 0.73102766
-0.35758582 -0.05350635 0.43047222 0.62874126 -0.37050813 -0.11388017 -0.3758828 -0.17454535
-0.0965936 0.95496094 -0.101658925 0.5234132 -0.39033642 -0.04094623 -0.2480477 -0.7164086
0.06337381 0.5444069 -0.017759996 -0.18380839 -0.04953841 -0.24073222 -0.0057327556 -0.75530916
-0.15462297 0.09942978 0.52589744 -0.082421675 0.26077 -0.06590936 0.18520638 0.43409425
0.87727374 0.60507685 0.2448301 -0.0009786609 0.464614 0.12973653 -0.5489793 0.41903445
0.44015384 0.70373815 0.49620354 0.22954182 0.1903393 -0.37691098 0.77265906 -0.19848843
0.67589706 -0.43790457 0.17821708 -0.48750672 0.13681531 0.23597954 0.411937 0.3108977
-0.028875398 -0.47455913 0.33268267 0.04068082 0.3685442 0.69596046 -0.061413214 0.29752925
0.5688857 -0.43013713 0.085194774 -0.24427687 0.26166126 0.5800548 0.7452258 0.13847731
-0.061527126 -0.4728162 0.25420392 0.6292395 0.6299199 0.42782614 0.14583169 0.29661247
-0.352461 0.21732846 -0.17890391 0.5984736 0.42632717 0.7727472 0.7483445 0.25623375
0.52469647 0.29194838 -0.50378376 0.20482688 0.52862793 0.62935925 0.53648007 0.18664803
0.5562432 0.026528966 -0.04246719 -0.08166812 -0.2406585 -0.060211834 0.3400751 0.38876277
0.50014967 0.5189813 -0.28331575 -0.16260742 0.48411074 -0.13109744 0.53752804 -0.09850531
0.49747562 -0.31611994 0.048383046 -0.08833286 -0.47883704 0.43740588 -0.23812771 -0.24783167
-0.33062306 0.50411683 -0.18625867 -0.08533399 -0.22378513 0.45850104 -0.20811221 -0.06909417
-0.007878768 0.47408846 0.48544618 0.28524017 0.54157174 -0.114582814 -0.23075317 0.59421855
0.47226864 0.12602158 0.5638391 0.40630415 0.51576644 -0.017826099 -0.2309339 0.015458717
-0.34154794 0.46573198 -0.1256619 0.40433973 -0.18497106 1.1159087 0.6027918 -0.25011837
0.020334953 0.5191832 -0.147577 0.4581305 -0.026377417 0.5675427 -0.09696267 0.38589
-0.06678397 -0.24387783 -0.50811046 -0.43768772 0.7728295 -0.23438609 0.18704796 0.39629897
0.2391044 0.18848628 -0.42426842 0.32740483 -0.16904888 0.3086968 -0.023494814 0.41072702
-0.30835116 0.73730487 -0.25232264 -0.72647154 0.47728503 -0.290697 -0.53710717 -0.36986452
0.19696112 -0.21220642 -0.25102168 -0.32809174 0.12853205 -0.110225424 -0.28865987 0.41217446
-0.011766877 0.34389877 0.41931942 0.22809033 -0.23007081 0.048721623 0.16994688 0.38578573
-0.23592454 0.42707363 -0.26210666 -0.25344038 0.3244126 -0.23627265 0.614305 -0.51613235
0.25712806 -0.26022613 0.16950887 -0.25960276 0.99991125 0.4283821 -0.27047476 -0.26024565
0.27237803 -0.2730805 -0.050879486 0.17209978 0.18874569 -0.047836564 0.48928913 0.16032957
00000000: abce 32be 99e6 1b3d 04f9 4fbe 812a e1bb
00000010: c0f6 903e 6695 b23d f806 933e 8a39 073f
00000020: ecd9 24be 8c7b efbd cef7 08bf c88f 62be
00000030: 146c 25bf cf83 873e a83c 3cbe e4c3 84be
00000040: d4b8 3abe f104 993d d0b2 afbd ea74 ac3e
00000050: c948 df3e 345c e23e 4f86 dc3e 37cb a5be
00000060: 2f10 813e b6f4 973e 7404 a63e e188 0dbe
00000070: 3b13 383e 2d66 f6bd 5f27 323d a124 3b3f
00000080: 7d15 b7be 7929 5bbd db66 dc3e 30f5 203f
00000090: 3eb3 bdbe 023a e9bd b673 c0be 04bc 32be
000000a0: ded2 c5bd 5278 743f 8e32 d0bd 68fe 053f
000000b0: 2dda c7be 3cb7 27bd 3700 7ebe 8e66 37bf
000000c0: 21ca 813d 405e 0b3f 697d 91bc 4438 3cbe
000000d0: cae8 4abd 8282 76be d7d9 bbbb f15b 41bf
000000e0: 7c55 1ebe d7a1 cb3d 37a1 063f b2cc a8bd
000000f0: a583 853e 7dfb 86bd bea6 3d3e 9a41 de3e
00000100: 0395 603f 51e6 1a3f beb4 7a3e 6946 80ba
00000110: e3e1 ed3e a7d9 043e e889 0cbf af8b d63e
00000120: d85b e13e 2f28 343f 640e fe3e 030d 6b3e
00000130: 4ee8 423e 7afa c0be fccc 453f 8d40 4bbe
00000140: 9707 2d3f 0735 e0be 8a7e 363e 7b9a f9be
00000150: 5019 0c3e 9fa4 713e 68e9 d23e fc2d 9f3e
00000160: 198c ecbc 6af9 f2be 6255 aa3e eea0 263d
00000170: d3b1 bc3e 772a 323f 6c8c 7bbd c155 983e
00000180: 7ea2 113f ef3a dcbe 997a ae3d b723 7abe
00000190: 77f8 853e 797e 143f 1ec7 3e3f ffcc 0d3e
000001a0: de03 7cbd f714 f2be 0427 823e d715 213f
000001b0: 6e42 213f 070c db3e e754 153e 97dd 973e
000001c0: c575 b4be 5a8b 5e3e 9632 37be 9135 193f
000001d0: 8e47 da3e c3d2 453f 8193 3f3f 1231 833e
000001e0: 8252 063f 427a 953e f9f7 00bf 23be 513e
000001f0: 2954 073f b01d 213f c256 093f a920 3f3e
00000200: f465 0e3f 4653 d93c 14f2 2dbd 9e41 a7bd
00000210: 2f6f 76be afa0 76bd 531e ae3e ea0b c73e
00000220: cf09 003f f5db 043f c30e 91be 8f82 26be
00000230: 5ddd f73e 683e 06be 709b 093f 27bd c9bd
00000240: 20b5 fe3e 79da a1be 4d2d 463d dce7 b4bd
00000250: 212a f5be aaf3 df3e c0d7 73be 96c7 7dbe
00000260: 6d47 a9be cd0d 013f 98ba 3ebe 96c3 aebd
00000270: ee27 65be a6c0 ea3e 5e1b 55be 3f81 8dbd
00000280: f315 01bc b9bb f23e 678c f83e 000b 923e
00000290: 72a4 0a3f 65aa eabd 8f4a 6cbe b51e 183f
000002a0: 32cd f13e cd0b 013e c257 103f 1907 d03e
000002b0: 4509 043f 0a08 92bc f079 6cbe 8f46 7d3c
000002c0: 5fdf aebe 6c74 ee3e 83ad 00be 9e05 cf3e
000002d0: 0e69 3dbe 19d6 8e3f 9050 1a3f 840f 80be
000002e0: 7d95 a63c 31e9 043f 6d1e 17be 1590 ea3e
000002f0: 7415 d8bc 7a4a 113f 5d94 c6bd 6093 c53e
00000300: 09c6 88bd 1cbb 79be 8713 02bf 9b18 e0be
00000310: 27d8 453f e802 70be 8089 3f3e b3e7 ca3e
00000320: c9d7 743e 8c02 413e b639 d9be 9ba1 a73e
00000330: 261b 2dbe 820d 9e3e 3278 c0bc d04a d23e
00000340: 34e0 9dbe 03c0 3c3f 6f30 81be 0afa 39bf
00000350: b45e f43e 3dd6 94be db7f 09bf e25e bdbe
00000360: 2db0 493e a44c 59be ea85 80be a4fb a7be
00000370: e89d 033e debd e1bd 3acb 93be 8808 d33e
00000380: dcc9 40bc 8013 b03e 09b1 d63e 8390 693e
00000390: af97 6bbe 5390 473d 8e06 2e3e b585 c53e
000003a0: 3496 71be 65a9 da3e d832 86be f0c2 81be
000003b0: 6919 a63e 75f1 71be 1843 1d3f 4021 04bf
000003c0: 4aa6 833e 5c3c 85be bc93 2d3e a7ea 84be
000003d0: 2ffa 7f3f e654 db3e ab7b 8abe eb3e 85be
000003e0: 2275 8b3e 35d1 8bbe 0267 50bd ed3a 303e
000003f0: 8d46 413e 46f0 43bd 1b84 fa3e 6f2d 243e

l1.bias f4 [8]
0.65306556 0.6859877 0.47874856 0.7733703 0.58039606 0.7959586 0.38900417 0.8195956
00000000: 4e2f 273f e49c 2f3f 881e f53e 99fb 453f
00000010: d694 143f f1c3 4b3f 8e2b c73e 04d1 513f

l2.weight f4 [8, 8]
-1.0275675 0.35567838 0.9009274 1.4756682 -0.028708274 1.2649946 -0.05910235 -0.35411802
1.5183157 -0.66451764 0.46303737 1.1629295 1.1406988 0.27008444 -0.29886904 0.8999377
0.2906157 1.084325 0.23295045 -0.57727194 0.4526131 -0.17890319 0.9273912 -0.5953579
-0.049585156 0.8137731 -1.1950917 -1.0917017 0.5227568 1.0440438 -0.73004633 1.0070074
-0.42925838 0.506966 1.0258456 0.587577 1.1565186 -0.48240626 -0.46258456 -0.46385217
1.0841461 0.8411632 -0.13919461 0.541845 0.0172095 -0.69977546 1.0537969 -0.17285638
-0.4452329 1.0906241 0.3774341 0.20320246 -0.20294093 0.80041665 -0.43492097 -0.16366495
0.292636 0.15516572 0.5727314 -0.33476368 0.9018177 -0.9507198 0.96150863 -0.33988416
00000000: 5587 83bf 7a1b b63e 2ea3 663f b2e2 bc3f
00000010: 9d2d ebbc 58eb a13f 4e15 72bd f54e b5be
00000020: 2b58 c23f d41d 2abf 3c13 ed3e e0da 943f
00000030: 6b02 923f 8248 8a3e 5d05 99be 5162 663f
00000040: 95cb 943e 29cb 8a3f 908a 6e3e 18c8 13bf
00000050: e7bc e73e 6632 37be 8269 6d3f 6069 18bf
00000060: ce19 4bbd 6f53 503f c4f8 98bf e2bc 8bbf
00000070: 64d3 053f 3aa3 853f 51e4 3abf 9ee5 803f
00000080: c1c7 dbbe 86c8 013f e94e 833f 726b 163f
00000090: cd08 943f f4fd f6be e2d7 ecbe 087e edbe
000000a0: 4dc5 8a3f 7956 573f 0889 0ebe 5bb6 0a3f
000000b0: f0fa 8c3c 7c24 33bf d1e2 863f 4301 31be
000000c0: 91f5 e3be 9299 8b3f 0b3f c13e 4e14 503e
000000d0: bfcf 4fbe 1be8 4c3f f6ad debe c997 27be
000000e0: 63d4 953e c3e3 1e3e 869e 123f 2566 abbe
000000f0: 86dd 663f 5f62 73bf 6e25 763f 4c05 aebe

l2.bias f4 [8]
0.17523216 0.4014673 0.22366098 0.7703702 -0.05729971 0.3596668 -0.16472277 0.0103291515
00000000: 0f70 333e 1f8d cd3e 6207 653e fb36 453f
00000010: 1ab3 6abd 3f26 b83e 16ad 28be 9a3b 293c

l3.weight f4 [9, 8]
0.8307689 -0.31296572 -1.1949364 0.3835402 -1.1039671 -1.8667115 0.31507903 -0.52920526
-0.0064375177 0.43882254 -0.7725211 -0.2535225 0.5028666 -1.4223181 -1.2094287 0.16716234
-0.7657272 -1.2542163 0.32645708 0.40842396 -0.4655871 -0.3249643 0.8927765 -0.45645583
0.55389905 0.61962736 -1.1201292 -1.2045451 -1.3442003 0.67158043 -1.3688004 -1.5447317
-1.6378735 0.48202708 -0.3436288 0.9446369 -1.0411049 -0.5368533 -0.4226654 -0.9191389
-1.2396986 -1.4152135 0.8568133 -0.64227414 -1.3459255 0.51339793 -0.66442 0.5987046
-1.2034909 0.2922235 0.51446104 -1.069502 0.14742407 -0.08145466 -1.4330388 0.20000039
-0.0029723009 -0.96737665 0.6206366 -1.1363987 0.6686298 -0.008382824 -0.25935227 -0.15793094
0.6697271 -0.2348021 0.008872682 -1.2502835 0.45391977 -0.77532744 0.50255597 -1.4277866
00000000: 45ad 543f 0b3d a0be adf3 98bf 625f c43e
00000010: cb4e 8dbf 67f0 eebf 0a52 a13e ff79 07bf
00000020: d0f1 d2bb 59ad e03e f1c3 45bf b3cd 81be
00000030: debb 003f 850e b6bf 8fce 9abf 9b2c 2b3e
00000040: b306 44bf 298a a0bf 6225 a73e f21c d13e
00000050: 6f61 eebe b961 a6be 008d 643f 94b4 e9be
00000060: 54cc 0d3f e69f 1e3f 6560 8fbf 892e 9abf
00000070: c10e acbf b2ec 2b3f da34 afbf c5b9 c5bf
00000080: d7a5 d1bf 41cc f63e 1df0 afbe b9d3 713f
00000090: ed42 85bf 386f 09bf 9967 d8be b04c 6bbf
000000a0: 72ae 9ebf b725 b5bf 1e58 5b3f 146c 24bf
000000b0: 4947 acbf 0c6e 033f 6e17 2abf b444 193f
000000c0: fd0b 9abf 529e 953e b8b3 033f 71e5 88bf
000000d0: 56f6 163e b3d1 a6bd d16d b7bf e7cc 4c3e
000000e0: efca 42bb ffa5 77bf 0ae2 1e3f 8375 91bf
000000f0: 532b 2b3f 1d58 09bc d2c9 84be a6b8 21be
00000100: 3c73 2b3f f66f 70be ba5e 113c 4a09 a0bf
00000110: 2c68 e83e dc7b 46bf 82a7 003f b6c1 b6bf

l3.bias f4 [9]
0.09896769 -0.5740742 -0.10794997 0.2273856 0.26400778 -0.22329226 -0.34519917 -0.34457126
-0.30035874
00000000: 92af ca3d 87f6 12bf e014 ddbd c5d7 683e
00000010: 072c 873e baa6 64be f2bd b0be a56b b0be
00000020: 9fc8 99be
